…
        },
        "id": "yvLhqvMeL05B",
        "outputId": "c47ee768-a6bf-42c4-b8bf-79ab450d0c36"
      },
      "source": [
        "model.summary()"
      ],
      "execution_count": 128,
      "outputs": [
        {
          "output_type": "stream",
          "text": [
            "Model: \"sequential_40\"\n",
            "_________________________________________________________________\n",
            "Layer (type)                 Output Shape              Param #   \n",
            "=================================================================\n",
            "conv2d_76 (Conv2D)           (None, 28, 28, 32)        128       \n",
            "_________________________________________________________________\n",
            "max_pooling2d_65 (MaxPooling (None, 14, 14, 32)        0         \n",
            "_________________________________________________________________\n",
            "conv2d_77 (Conv2D)           (None, 8, 8, 32)          50208     \n",
            "_________________________________________________________________\n",
            "max_pooling2d_66 (MaxPooling (None, 4, 4, 32)          0         \n",
            "_________________________________________________________________\n",
            "flatten_23 (Flatten)         (None, 512)               0         \n",
            "_________________________________________________________________\n",
            "dense_69 (Dense)             (None, 576)               295488    \n",
            "_________________________________________________________________\n",
            "dense_70 (Dense)             (None, 64)                36928     \n",
            "_________________________________________________________________\n",
            "dense_71 (Dense)             (None, 10)                650       \n",
            "=================================================================\n",
            "Total params: 383,402\n",
            "Trainable params: 383,402\n",
            "Non-trainable params: 0\n",
            "_________________________________________________________________\n"
          ],
          "name": "stdout"
        }
      ]
    }
  ]
}